…
dense_2: 512
dropout_end: 0.4
dropout_blocks: 0.25
activation: relu
Model: "model"
__________________________________________________________________________________________________
 Layer (type)                Output Shape                 Param #   Connected to                  
==================================================================================================
 input (InputLayer)          [(None, 700, 1)]             0         []                            
                                                                                                  
 conv1d_1 (Conv1D)           (None, 700, 64)              512       ['input[0][0]']               
                                                                                                  
 batch_normalization (Batch  (None, 700, 64)              2800      ['conv1d_1[0][0]']            
 Normalization)                                                                                   
                                                                                                  
 activation (Activation)     (None, 700, 64)              0         ['batch_normalization[0][0]'] 
                                                                                                  
 conv1d_2 (Conv1D)           (None, 700, 64)              28736     ['activation[0][0]']          
                                                                                                  
 batch_normalization_1 (Bat  (None, 700, 64)              2800      ['conv1d_2[0][0]']            
 chNormalization)                                                                                 
                                                                                                  
 conv1d (Conv1D)             (None, 700, 64)              128       ['input[0][0]']               
                                                                                                  
 add (Add)                   (None, 700, 64)              0         ['batch_normalization_1[0][0]'
                                                                    , 'conv1d[0][0]']             
                                                                                                  
 activation_1 (Activation)   (None, 700, 64)              0         ['add[0][0]']                 
                                                                                                  
 max_pooling1d (MaxPooling1  (None, 233, 64)              0         ['activation_1[0][0]']        
 D)                                                                                               
                                                                                                  
 dropout (Dropout)           (None, 233, 64)              0         ['max_pooling1d[0][0]']       
                                                                                                  
 conv1d_4 (Conv1D)           (None, 233, 128)             41088     ['dropout[0][0]']             
                                                                                                  
 batch_normalization_2 (Bat  (None, 233, 128)             932       ['conv1d_4[0][0]']            
 chNormalization)                                                                                 
                                                                                                  
 activation_2 (Activation)   (None, 233, 128)             0         ['batch_normalization_2[0][0]'
                                                                    ]                             
                                                                                                  
 conv1d_5 (Conv1D)           (None, 233, 128)             82048     ['activation_2[0][0]']        
                                                                                                  
 batch_normalization_3 (Bat  (None, 233, 128)             932       ['conv1d_5[0][0]']            
 chNormalization)                                                                                 
                                                                                                  
 conv1d_3 (Conv1D)           (None, 233, 128)             8320      ['dropout[0][0]']             
                                                                                                  
 add_1 (Add)                 (None, 233, 128)             0         ['batch_normalization_3[0][0]'
                                                                    , 'conv1d_3[0][0]']           
                                                                                                  
 activation_3 (Activation)   (None, 233, 128)             0         ['add_1[0][0]']               
                                                                                                  
 max_pooling1d_1 (MaxPoolin  (None, 77, 128)              0         ['activation_3[0][0]']        
 g1D)                                                                                             
                                                                                                  
 dropout_1 (Dropout)         (None, 77, 128)              0         ['max_pooling1d_1[0][0]']     
                                                                                                  
 conv1d_7 (Conv1D)           (None, 77, 256)              98560     ['dropout_1[0][0]']           
                                                                                                  
 batch_normalization_4 (Bat  (None, 77, 256)              308       ['conv1d_7[0][0]']            
 chNormalization)                                                                                 
                                                                                                  
 activation_4 (Activation)   (None, 77, 256)              0         ['batch_normalization_4[0][0]'
                                                                    ]                             
                                                                                                  
 conv1d_8 (Conv1D)           (None, 77, 256)              196864    ['activation_4[0][0]']        
                                                                                                  
 batch_normalization_5 (Bat  (None, 77, 256)              308       ['conv1d_8[0][0]']            
 chNormalization)                                                                                 
                                                                                                  
 conv1d_6 (Conv1D)           (None, 77, 256)              33024     ['dropout_1[0][0]']           
                                                                                                  
 add_2 (Add)                 (None, 77, 256)              0         ['batch_normalization_5[0][0]'
                                                                    , 'conv1d_6[0][0]']           
                                                                                                  
 activation_5 (Activation)   (None, 77, 256)              0         ['add_2[0][0]']               
                                                                                                  
 max_pooling1d_2 (MaxPoolin  (None, 25, 256)              0         ['activation_5[0][0]']        
 g1D)                                                                                             
                                                                                                  
 dropout_2 (Dropout)         (None, 25, 256)              0         ['max_pooling1d_2[0][0]']     
                                                                                                  
 flatten (Flatten)           (None, 6400)                 0         ['dropout_2[0][0]']           
                                                                                                  
 dense (Dense)               (None, 2048)                 1310924   ['flatten[0][0]']             
                                                          8                                       
                                                                                                  
 dropout_3 (Dropout)         (None, 2048)                 0         ['dense[0][0]']               
                                                                                                  
 dense_1 (Dense)             (None, 512)                  1049088   ['dropout_3[0][0]']           
                                                                                                  
 dropout_4 (Dropout)         (None, 512)                  0         ['dense_1[0][0]']             
                                                                                                  
 output_barcode (Dense)      (None, 8)                    4104      ['dropout_4[0][0]']           
                                                                                                  
==================================================================================================
Total params: 14659800 (55.92 MB)
Trainable params: 14655760 (55.91 MB)
Non-trainable params: 4040 (15.78 KB)
__________________________________________________________________________________________________
