…
dense_2: 512
dropout_end: 0.4
dropout_blocks: 0.25
activation: relu
Model: "model"
__________________________________________________________________________________________________
 Layer (type)                Output Shape                 Param #   Connected to                  
==================================================================================================
 input (InputLayer)          [(None, 700, 1)]             0         []                            
                                                                                                  
 conv1d_1 (Conv1D)           (None, 700, 64)              512       ['input[0][0]']               
                                                                                                  
 batch_normalization (Batch  (None, 700, 64)              2800      ['conv1d_1[0][0]']            
 Normalization)                                                                                   
                                                                                                  
 activation (Activation)     (None, 700, 64)              0         ['batch_normalization[0][0]'] 
                                                                                                  
 conv1d_2 (Conv1D)           (None, 700, 64)              28736     ['activation[0][0]']          
                                                                                                  
 batch_normalization_1 (Bat  (None, 700, 64)              2800      ['conv1d_2[0][0]']            
 chNormalization)                                                                                 
                                                                                                  
 conv1d (Conv1D)             (None, 700, 64)              128       ['input[0][0]']               
                                                                                                  
 add (Add)                   (None, 700, 64)              0         ['batch_normalization_1[0][0]'
                                                                    , 'conv1d[0][0]']             
                                                                                                  
 activation_1 (Activation)   (None, 700, 64)              0         ['add[0][0]']                 
                                                                                                  
 max_pooling1d (MaxPooling1  (None, 233, 64)              0         ['activation_1[0][0]']        
 D)                                                                                               
                                                                                                  
 dropout (Dropout)           (None, 233, 64)              0         ['max_pooling1d[0][0]']       
                                                                                                  
 conv1d_4 (Conv1D)           (None, 233, 128)             57472     ['dropout[0][0]']             
                                                                                                  
 batch_normalization_2 (Bat  (None, 233, 128)             932       ['conv1d_4[0][0]']            
 chNormalization)                                                                                 
                                                                                                  
 activation_2 (Activation)   (None, 233, 128)             0         ['batch_normalization_2[0][0]'
                                                                    ]                             
                                                                                                  
 conv1d_5 (Conv1D)           (None, 233, 128)             114816    ['activation_2[0][0]']        
                                                                                                  
 batch_normalization_3 (Bat  (None, 233, 128)             932       ['conv1d_5[0][0]']            
 chNormalization)                                                                                 
                                                                                                  
 conv1d_3 (Conv1D)           (None, 233, 128)             8320      ['dropout[0][0]']             
                                                                                                  
 add_1 (Add)                 (None, 233, 128)             0         ['batch_normalization_3[0][0]'
                                                                    , 'conv1d_3[0][0]']           
                                                                                                  
 activation_3 (Activation)   (None, 233, 128)             0         ['add_1[0][0]']               
                                                                                                  
 max_pooling1d_1 (MaxPoolin  (None, 77, 128)              0         ['activation_3[0][0]']        
 g1D)                                                                                             
                                                                                                  
 dropout_1 (Dropout)         (None, 77, 128)              0         ['max_pooling1d_1[0][0]']     
                                                                                                  
 conv1d_7 (Conv1D)           (None, 77, 256)              164096    ['dropout_1[0][0]']           
                                                                                                  
 batch_normalization_4 (Bat  (None, 77, 256)              308       ['conv1d_7[0][0]']            
 chNormalization)                                                                                 
                                                                                                  
 activation_4 (Activation)   (None, 77, 256)              0         ['batch_normalization_4[0][0]'
                                                                    ]                             
                                                                                                  
 conv1d_8 (Conv1D)           (None, 77, 256)              327936    ['activation_4[0][0]']        
                                                                                                  
 batch_normalization_5 (Bat  (None, 77, 256)              308       ['conv1d_8[0][0]']            
 chNormalization)                                                                                 
                                                                                                  
 conv1d_6 (Conv1D)           (None, 77, 256)              33024     ['dropout_1[0][0]']           
                                                                                                  
 add_2 (Add)                 (None, 77, 256)              0         ['batch_normalization_5[0][0]'
                                                                    , 'conv1d_6[0][0]']           
                                                                                                  
 activation_5 (Activation)   (None, 77, 256)              0         ['add_2[0][0]']               
                                                                                                  
 max_pooling1d_2 (MaxPoolin  (None, 25, 256)              0         ['activation_5[0][0]']        
 g1D)                                                                                             
                                                                                                  
 dropout_2 (Dropout)         (None, 25, 256)              0         ['max_pooling1d_2[0][0]']     
                                                                                                  
 conv1d_10 (Conv1D)          (None, 25, 512)              393728    ['dropout_2[0][0]']           
                                                                                                  
 batch_normalization_6 (Bat  (None, 25, 512)              100       ['conv1d_10[0][0]']           
 chNormalization)                                                                                 
                                                                                                  
 activation_6 (Activation)   (None, 25, 512)              0         ['batch_normalization_6[0][0]'
                                                                    ]                             
                                                                                                  
 conv1d_11 (Conv1D)          (None, 25, 512)              786944    ['activation_6[0][0]']        
                                                                                                  
 batch_normalization_7 (Bat  (None, 25, 512)              100       ['conv1d_11[0][0]']           
 chNormalization)                                                                                 
                                                                                                  
 conv1d_9 (Conv1D)           (None, 25, 512)              131584    ['dropout_2[0][0]']           
                                                                                                  
 add_3 (Add)                 (None, 25, 512)              0         ['batch_normalization_7[0][0]'
                                                                    , 'conv1d_9[0][0]']           
                                                                                                  
 activation_7 (Activation)   (None, 25, 512)              0         ['add_3[0][0]']               
                                                                                                  
 max_pooling1d_3 (MaxPoolin  (None, 8, 512)               0         ['activation_7[0][0]']        
 g1D)                                                                                             
                                                                                                  
 dropout_3 (Dropout)         (None, 8, 512)               0         ['max_pooling1d_3[0][0]']     
                                                                                                  
 conv1d_13 (Conv1D)          (None, 8, 1024)              1573888   ['dropout_3[0][0]']           
                                                                                                  
 batch_normalization_8 (Bat  (None, 8, 1024)              32        ['conv1d_13[0][0]']           
 chNormalization)                                                                                 
                                                                                                  
 activation_8 (Activation)   (None, 8, 1024)              0         ['batch_normalization_8[0][0]'
                                                                    ]                             
                                                                                                  
 conv1d_14 (Conv1D)          (None, 8, 1024)              3146752   ['activation_8[0][0]']        
                                                                                                  
 batch_normalization_9 (Bat  (None, 8, 1024)              32        ['conv1d_14[0][0]']           
 chNormalization)                                                                                 
                                                                                                  
 conv1d_12 (Conv1D)          (None, 8, 1024)              525312    ['dropout_3[0][0]']           
                                                                                                  
 add_4 (Add)                 (None, 8, 1024)              0         ['batch_normalization_9[0][0]'
                                                                    , 'conv1d_12[0][0]']          
                                                                                                  
 activation_9 (Activation)   (None, 8, 1024)              0         ['add_4[0][0]']               
                                                                                                  
 max_pooling1d_4 (MaxPoolin  (None, 2, 1024)              0         ['activation_9[0][0]']        
 g1D)                                                                                             
                                                                                                  
 dropout_4 (Dropout)         (None, 2, 1024)              0         ['max_pooling1d_4[0][0]']     
                                                                                                  
 flatten (Flatten)           (None, 2048)                 0         ['dropout_4[0][0]']           
                                                                                                  
 dense (Dense)               (None, 2048)                 4196352   ['flatten[0][0]']             
                                                                                                  
 dropout_5 (Dropout)         (None, 2048)                 0         ['dense[0][0]']               
                                                                                                  
 dense_1 (Dense)             (None, 512)                  1049088   ['dropout_5[0][0]']           
                                                                                                  
 dropout_6 (Dropout)         (None, 512)                  0         ['dense_1[0][0]']             
                                                                                                  
 output_barcode (Dense)      (None, 8)                    4104      ['dropout_6[0][0]']           
                                                                                                  
==================================================================================================
Total params: 12551136 (47.88 MB)
Trainable params: 12546964 (47.86 MB)
Non-trainable params: 4172 (16.30 KB)
__________________________________________________________________________________________________
