…
brow_aug_use: True
validation_perc: 0.1
---Model summary:---
Model: "model"
__________________________________________________________________________________________________
 Layer (type)                Output Shape                 Param #   Connected to                  
==================================================================================================
 input (InputLayer)          [(None, 700, 1)]             0         []                            
                                                                                                  
 conv1d (Conv1D)             (None, 700, 64)              256       ['input[0][0]']               
                                                                                                  
 batch_normalization (Batch  (None, 700, 64)              256       ['conv1d[0][0]']              
 Normalization)                                                                                   
                                                                                                  
 activation (Activation)     (None, 700, 64)              0         ['batch_normalization[0][0]'] 
                                                                                                  
 conv1d_1 (Conv1D)           (None, 700, 64)              12352     ['activation[0][0]']          
                                                                                                  
 batch_normalization_1 (Bat  (None, 700, 64)              256       ['conv1d_1[0][0]']            
 chNormalization)                                                                                 
                                                                                                  
 add (Add)                   (None, 700, 64)              0         ['batch_normalization_1[0][0]'
                                                                    , 'input[0][0]']              
                                                                                                  
 activation_1 (Activation)   (None, 700, 64)              0         ['add[0][0]']                 
                                                                                                  
 conv1d_2 (Conv1D)           (None, 700, 64)              12352     ['activation_1[0][0]']        
                                                                                                  
 batch_normalization_2 (Bat  (None, 700, 64)              256       ['conv1d_2[0][0]']            
 chNormalization)                                                                                 
                                                                                                  
 activation_2 (Activation)   (None, 700, 64)              0         ['batch_normalization_2[0][0]'
                                                                    ]                             
                                                                                                  
 conv1d_3 (Conv1D)           (None, 700, 64)              12352     ['activation_2[0][0]']        
                                                                                                  
 batch_normalization_3 (Bat  (None, 700, 64)              256       ['conv1d_3[0][0]']            
 chNormalization)                                                                                 
                                                                                                  
 add_1 (Add)                 (None, 700, 64)              0         ['batch_normalization_3[0][0]'
                                                                    , 'activation_1[0][0]']       
                                                                                                  
 activation_3 (Activation)   (None, 700, 64)              0         ['add_1[0][0]']               
                                                                                                  
 conv1d_4 (Conv1D)           (None, 700, 64)              28736     ['activation_3[0][0]']        
                                                                                                  
 conv1d_5 (Conv1D)           (None, 700, 64)              28736     ['conv1d_4[0][0]']            
                                                                                                  
 attention (Attention)       (None, 700, 64)              0         ['conv1d_5[0][0]',            
                                                                     'activation_3[0][0]',        
                                                                     'conv1d_5[0][0]']            
                                                                                                  
 conv1d_6 (Conv1D)           (None, 700, 64)              12352     ['attention[0][0]']           
                                                                                                  
 batch_normalization_4 (Bat  (None, 700, 64)              256       ['conv1d_6[0][0]']            
 chNormalization)                                                                                 
                                                                                                  
 activation_4 (Activation)   (None, 700, 64)              0         ['batch_normalization_4[0][0]'
                                                                    ]                             
                                                                                                  
 conv1d_7 (Conv1D)           (None, 700, 64)              12352     ['activation_4[0][0]']        
                                                                                                  
 batch_normalization_5 (Bat  (None, 700, 64)              256       ['conv1d_7[0][0]']            
 chNormalization)                                                                                 
                                                                                                  
 add_2 (Add)                 (None, 700, 64)              0         ['batch_normalization_5[0][0]'
                                                                    , 'attention[0][0]']          
                                                                                                  
 activation_5 (Activation)   (None, 700, 64)              0         ['add_2[0][0]']               
                                                                                                  
 conv1d_8 (Conv1D)           (None, 700, 64)              12352     ['activation_5[0][0]']        
                                                                                                  
 batch_normalization_6 (Bat  (None, 700, 64)              256       ['conv1d_8[0][0]']            
 chNormalization)                                                                                 
                                                                                                  
 activation_6 (Activation)   (None, 700, 64)              0         ['batch_normalization_6[0][0]'
                                                                    ]                             
                                                                                                  
 conv1d_9 (Conv1D)           (None, 700, 64)              12352     ['activation_6[0][0]']        
                                                                                                  
 batch_normalization_7 (Bat  (None, 700, 64)              256       ['conv1d_9[0][0]']            
 chNormalization)                                                                                 
                                                                                                  
 add_3 (Add)                 (None, 700, 64)              0         ['batch_normalization_7[0][0]'
                                                                    , 'activation_5[0][0]']       
                                                                                                  
 activation_7 (Activation)   (None, 700, 64)              0         ['add_3[0][0]']               
                                                                                                  
 conv1d_10 (Conv1D)          (None, 350, 128)             24704     ['activation_7[0][0]']        
                                                                                                  
 batch_normalization_8 (Bat  (None, 350, 128)             512       ['conv1d_10[0][0]']           
 chNormalization)                                                                                 
                                                                                                  
 activation_8 (Activation)   (None, 350, 128)             0         ['batch_normalization_8[0][0]'
                                                                    ]                             
                                                                                                  
 conv1d_11 (Conv1D)          (None, 350, 128)             49280     ['activation_8[0][0]']        
                                                                                                  
 batch_normalization_9 (Bat  (None, 350, 128)             512       ['conv1d_11[0][0]']           
 chNormalization)                                                                                 
                                                                                                  
 conv1d_12 (Conv1D)          (None, 350, 128)             8320      ['activation_7[0][0]']        
                                                                                                  
 add_4 (Add)                 (None, 350, 128)             0         ['batch_normalization_9[0][0]'
                                                                    , 'conv1d_12[0][0]']          
                                                                                                  
 activation_9 (Activation)   (None, 350, 128)             0         ['add_4[0][0]']               
                                                                                                  
 conv1d_13 (Conv1D)          (None, 350, 128)             49280     ['activation_9[0][0]']        
                                                                                                  
 batch_normalization_10 (Ba  (None, 350, 128)             512       ['conv1d_13[0][0]']           
 tchNormalization)                                                                                
                                                                                                  
 activation_10 (Activation)  (None, 350, 128)             0         ['batch_normalization_10[0][0]
                                                                    ']                            
                                                                                                  
 conv1d_14 (Conv1D)          (None, 350, 128)             49280     ['activation_10[0][0]']       
                                                                                                  
 batch_normalization_11 (Ba  (None, 350, 128)             512       ['conv1d_14[0][0]']           
 tchNormalization)                                                                                
                                                                                                  
 add_5 (Add)                 (None, 350, 128)             0         ['batch_normalization_11[0][0]
                                                                    ',                            
                                                                     'activation_9[0][0]']        
                                                                                                  
 activation_11 (Activation)  (None, 350, 128)             0         ['add_5[0][0]']               
                                                                                                  
 conv1d_15 (Conv1D)          (None, 175, 256)             98560     ['activation_11[0][0]']       
                                                                                                  
 batch_normalization_12 (Ba  (None, 175, 256)             1024      ['conv1d_15[0][0]']           
 tchNormalization)                                                                                
                                                                                                  
 activation_12 (Activation)  (None, 175, 256)             0         ['batch_normalization_12[0][0]
                                                                    ']                            
                                                                                                  
 conv1d_16 (Conv1D)          (None, 175, 256)             196864    ['activation_12[0][0]']       
                                                                                                  
 batch_normalization_13 (Ba  (None, 175, 256)             1024      ['conv1d_16[0][0]']           
 tchNormalization)                                                                                
                                                                                                  
 conv1d_17 (Conv1D)          (None, 175, 256)             33024     ['activation_11[0][0]']       
                                                                                                  
 add_6 (Add)                 (None, 175, 256)             0         ['batch_normalization_13[0][0]
                                                                    ',                            
                                                                     'conv1d_17[0][0]']           
                                                                                                  
 activation_13 (Activation)  (None, 175, 256)             0         ['add_6[0][0]']               
                                                                                                  
 conv1d_18 (Conv1D)          (None, 175, 256)             196864    ['activation_13[0][0]']       
                                                                                                  
 batch_normalization_14 (Ba  (None, 175, 256)             1024      ['conv1d_18[0][0]']           
 tchNormalization)                                                                                
                                                                                                  
 activation_14 (Activation)  (None, 175, 256)             0         ['batch_normalization_14[0][0]
                                                                    ']                            
                                                                                                  
 conv1d_19 (Conv1D)          (None, 175, 256)             196864    ['activation_14[0][0]']       
                                                                                                  
 batch_normalization_15 (Ba  (None, 175, 256)             1024      ['conv1d_19[0][0]']           
 tchNormalization)                                                                                
                                                                                                  
 add_7 (Add)                 (None, 175, 256)             0         ['batch_normalization_15[0][0]
                                                                    ',                            
                                                                     'activation_13[0][0]']       
                                                                                                  
 activation_15 (Activation)  (None, 175, 256)             0         ['add_7[0][0]']               
                                                                                                  
 average_pooling1d (Average  (None, 88, 256)              0         ['activation_15[0][0]']       
 Pooling1D)                                                                                       
                                                                                                  
 flatten (Flatten)           (None, 22528)                0         ['average_pooling1d[0][0]']   
                                                                                                  
 dense (Dense)               (None, 512)                  1153484   ['flatten[0][0]']             
                                                          8                                       
                                                                                                  
 dropout (Dropout)           (None, 512)                  0         ['dense[0][0]']               
                                                                                                  
 output_barcode (Dense)      (None, 8)                    4104      ['dropout[0][0]']             
                                                                                                  
==================================================================================================
Total params: 12594376 (48.04 MB)
Trainable params: 12590280 (48.03 MB)
Non-trainable params: 4096 (16.00 KB)
__________________________________________________________________________________________________
