…
dense_2: None
dropout_end: 0.4
dropout_blocks: 0.1
activation: relu
Model: "model"
__________________________________________________________________________________________________
 Layer (type)                Output Shape                 Param #   Connected to                  
==================================================================================================
 input (InputLayer)          [(None, 700, 1)]             0         []                            
                                                                                                  
 conv1d (Conv1D)             (None, 350, 32)              128       ['input[0][0]']               
                                                                                                  
 batch_normalization (Batch  (None, 350, 32)              128       ['conv1d[0][0]']              
 Normalization)                                                                                   
                                                                                                  
 activation (Activation)     (None, 350, 32)              0         ['batch_normalization[0][0]'] 
                                                                                                  
 max_pooling1d (MaxPooling1  (None, 175, 32)              0         ['activation[0][0]']          
 D)                                                                                               
                                                                                                  
 conv1d_1 (Conv1D)           (None, 175, 32)              3104      ['max_pooling1d[0][0]']       
                                                                                                  
 batch_normalization_1 (Bat  (None, 175, 32)              128       ['conv1d_1[0][0]']            
 chNormalization)                                                                                 
                                                                                                  
 activation_1 (Activation)   (None, 175, 32)              0         ['batch_normalization_1[0][0]'
                                                                    ]                             
                                                                                                  
 conv1d_2 (Conv1D)           (None, 175, 32)              3104      ['activation_1[0][0]']        
                                                                                                  
 batch_normalization_2 (Bat  (None, 175, 32)              128       ['conv1d_2[0][0]']            
 chNormalization)                                                                                 
                                                                                                  
 dropout (Dropout)           (None, 175, 32)              0         ['batch_normalization_2[0][0]'
                                                                    ]                             
                                                                                                  
 add (Add)                   (None, 175, 32)              0         ['dropout[0][0]',             
                                                                     'max_pooling1d[0][0]']       
                                                                                                  
 activation_2 (Activation)   (None, 175, 32)              0         ['add[0][0]']                 
                                                                                                  
 conv1d_3 (Conv1D)           (None, 175, 32)              3104      ['activation_2[0][0]']        
                                                                                                  
 batch_normalization_3 (Bat  (None, 175, 32)              128       ['conv1d_3[0][0]']            
 chNormalization)                                                                                 
                                                                                                  
 activation_3 (Activation)   (None, 175, 32)              0         ['batch_normalization_3[0][0]'
                                                                    ]                             
                                                                                                  
 conv1d_4 (Conv1D)           (None, 175, 32)              3104      ['activation_3[0][0]']        
                                                                                                  
 batch_normalization_4 (Bat  (None, 175, 32)              128       ['conv1d_4[0][0]']            
 chNormalization)                                                                                 
                                                                                                  
 dropout_1 (Dropout)         (None, 175, 32)              0         ['batch_normalization_4[0][0]'
                                                                    ]                             
                                                                                                  
 add_1 (Add)                 (None, 175, 32)              0         ['dropout_1[0][0]',           
                                                                     'activation_2[0][0]']        
                                                                                                  
 activation_4 (Activation)   (None, 175, 32)              0         ['add_1[0][0]']               
                                                                                                  
 conv1d_5 (Conv1D)           (None, 88, 64)               6208      ['activation_4[0][0]']        
                                                                                                  
 batch_normalization_5 (Bat  (None, 88, 64)               256       ['conv1d_5[0][0]']            
 chNormalization)                                                                                 
                                                                                                  
 activation_5 (Activation)   (None, 88, 64)               0         ['batch_normalization_5[0][0]'
                                                                    ]                             
                                                                                                  
 conv1d_6 (Conv1D)           (None, 88, 64)               12352     ['activation_5[0][0]']        
                                                                                                  
 batch_normalization_6 (Bat  (None, 88, 64)               256       ['conv1d_6[0][0]']            
 chNormalization)                                                                                 
                                                                                                  
 dropout_2 (Dropout)         (None, 88, 64)               0         ['batch_normalization_6[0][0]'
                                                                    ]                             
                                                                                                  
 conv1d_7 (Conv1D)           (None, 88, 64)               2112      ['activation_4[0][0]']        
                                                                                                  
 add_2 (Add)                 (None, 88, 64)               0         ['dropout_2[0][0]',           
                                                                     'conv1d_7[0][0]']            
                                                                                                  
 activation_6 (Activation)   (None, 88, 64)               0         ['add_2[0][0]']               
                                                                                                  
 conv1d_8 (Conv1D)           (None, 44, 128)              24704     ['activation_6[0][0]']        
                                                                                                  
 batch_normalization_7 (Bat  (None, 44, 128)              512       ['conv1d_8[0][0]']            
 chNormalization)                                                                                 
                                                                                                  
 activation_7 (Activation)   (None, 44, 128)              0         ['batch_normalization_7[0][0]'
                                                                    ]                             
                                                                                                  
 conv1d_9 (Conv1D)           (None, 44, 128)              49280     ['activation_7[0][0]']        
                                                                                                  
 batch_normalization_8 (Bat  (None, 44, 128)              512       ['conv1d_9[0][0]']            
 chNormalization)                                                                                 
                                                                                                  
 dropout_3 (Dropout)         (None, 44, 128)              0         ['batch_normalization_8[0][0]'
                                                                    ]                             
                                                                                                  
 conv1d_10 (Conv1D)          (None, 44, 128)              8320      ['activation_6[0][0]']        
                                                                                                  
 add_3 (Add)                 (None, 44, 128)              0         ['dropout_3[0][0]',           
                                                                     'conv1d_10[0][0]']           
                                                                                                  
 activation_8 (Activation)   (None, 44, 128)              0         ['add_3[0][0]']               
                                                                                                  
 average_pooling1d (Average  (None, 22, 128)              0         ['activation_8[0][0]']        
 Pooling1D)                                                                                       
                                                                                                  
 flatten (Flatten)           (None, 2816)                 0         ['average_pooling1d[0][0]']   
                                                                                                  
 dense (Dense)               (None, 10)                   28170     ['flatten[0][0]']             
                                                                                                  
 dropout_4 (Dropout)         (None, 10)                   0         ['dense[0][0]']               
                                                                                                  
 output_barcode (Dense)      (None, 8)                    88        ['dropout_4[0][0]']           
                                                                                                  
==================================================================================================
Total params: 145954 (570.13 KB)
Trainable params: 144866 (565.88 KB)
Non-trainable params: 1088 (4.25 KB)
__________________________________________________________________________________________________
